hand-gesture-recognition-mediapipe-main/model/point_history_classifier/point_history_classifier.tflite (tflite, 6432 bytes, 6 tensors)

sequential/dense/BiasAdd/ReadVariableOp f4 [24]
000000 35 b1 78 bc e4 24 71 bd 39 ec b2 bc 7d 90 80 bd
       -0.015178968 -0.058873072 -0.021841155 -0.06277559
000010 42 bc 07 be 71 57 39 bd 53 e6 2f be f5 74 c1 bd
       -0.13255408 -0.045249406 -0.17177705 -0.09446136
000020 ad 0c 1d be 08 c2 c7 bc f3 56 69 bd 67 45 b1 bd
       -0.15336867 -0.024384513 -0.056967687 -0.086558156
000030 a5 80 67 bd 77 74 43 3e 7e 53 d4 bc aa a4 93 bd
       -0.05651917 0.19087397 -0.025918718 -0.072091416
000040 6f 8f 4e 3d 28 44 49 bd a7 cd 36 be 59 83 88 bd
       0.050429758 -0.049137264 -0.17851888 -0.066656776
000050 8a 2b 19 bd 85 06 07 be bb 3b cf bd bf 2d 03 be
       -0.037395038 -0.13186081 -0.101188146 -0.1281042

sequential/dense_2/BiasAdd/ReadVariableOp f4 [4]
000000 c3 95 17 3f 89 87 86 bd 1f b8 97 3e 9a 43 33 bf
       0.59212893 -0.0656882 0.2963266 -0.70025027

sequential/dense_1/BiasAdd/ReadVariableOp f4 [10]
000000 6d 48 bb bd cb 9d e5 3c 1e 22 e4 3e 73 01 96 3d
       -0.091446735 0.028029343 0.4455728 0.07324495
000010 82 1c cd bd a9 55 15 3f c1 87 44 3c 7a 91 ac 3f
       -0.10015203 0.5833383 0.011995257 1.3481896
000020 4a 97 a0 3d 26 86 9d bd
       0.07841356 -0.076916024

sequential/dense/MatMul f4 [24, 32]
000000 a3 b4 23 be 72 bb e3 bd 86 f8 52 bd d1 4c bd 3f
       -0.15986876 -0.11119737 -0.05150654 1.4789068
000010 3d c4 27 be 9b 1c a9 3f 8a 28 0a bf 84 3b 65 3f
       -0.16383453 1.3211855 -0.5396811 0.8954394
000020 7f f5 0a bf 30 69 4d 3f 36 08 08 bf 7a 1d 10 3f
       -0.5428085 0.8023863 -0.5313753 0.5629498
000030 84 25 40 bf 2b 41 b2 3e 84 bd 57 bf ca 9b cc 3d
       -0.75057244 0.34815344 -0.8427355 0.09990652
000040 78 20 1d bf 77 99 7b be 07 97 2f bf 27 b1 47 be
       -0.6137767 -0.24570261 -0.68589824 -0.19501172
000050 af 57 ae be 87 55 de be c2 9e e5 bd c0 fc 07 bf
       -0.34051272 -0.43424627 -0.11211921 -0.5312004
000060 a8 2a e6 3d 9b 32 2b bf 26 c4 1a 3e 82 fc 09 bf
       0.11238605 -0.6687409 0.15113887 -0.5390092
000070 42 fa 0f 3f 42 92 c3 be ab 1d 46 3f 2d a9 69 be
       0.5624124 -0.38197523 0.7738902 -0.22818442
000080 38 c5 83 3e 41 0e 83 be fd c5 32 bd f7 a9 98 bf
       0.25736403 -0.25596812 -0.043645848 -1.1926869
000090 90 23 f3 3e 3d 82 ba bf 46 13 dc 3e 10 25 84 bf
       0.4748807 -1.4570996 0.42983454 -1.032381
0000a0 7c fa 46 3e ff 2b 8b bf 26 b8 b7 3e cc 17 70 bf
       0.1943149 -1.0872802 0.35882682 -0.9378631
0000b0 3f 65 11 3f 7e a2 3a bf 1f a9 db 3e 28 39 e4 be
       0.56795114 -0.72904193 0.42902467 -0.44574857
0000c0 5a 1f 4b 3f 59 80 aa be 7b 7d 85 3f f9 bd 9b bd
       0.79344714 -0.33301046 1.0428919 -0.07604594
0000d0 bb 03 44 3f 51 ec 68 be ba 77 4d 3f c0 60 da be
       0.7656819 -0.22746398 0.80260813 -0.4265194
0000e0 d3 8c c9 3e 43 41 f6 be 72 e7 59 3e 48 24 00 bf
       0.39365253 -0.48096666 0.21279696 -0.5005536
0000f0 ad 80 1c 3f 79 54 7a bf c2 62 96 3e 90 42 be bf
       0.61133844 -0.97785145 0.2937222 -1.4864063
000100 c0 fe 53 3c 3c f8 95 be 1f 9d 6f bd a6 e2 60 3f
       0.012939155 -0.2929095 -0.05849945 0.8784584
000110 ce f0 6b bc 23 31 6d 3f e2 b6 15 be d8 ee ce 3f
       -0.014400674 0.926531 -0.14620546 1.6166639
000120 1c ee a2 3e 48 7a b9 3f 50 8e b9 3e 1f 83 bb 3f
       0.31822288 1.4490442 0.36241388 1.464939
000130 01 fb ab 3e 54 a6 18 3f 96 b5 79 bc 3d 76 2b 3f
       0.33589938 0.59628797 -0.015241047 0.6697729
000140 52 d5 d6 3d 3b 88 9f 3e 75 2a e2 bc 6d ec 7e 3e
       0.10489906 0.31158623 -0.027608136 0.24894877
000150 36 33 0a be f0 5d b5 be 80 5f 8d be c7 67 09 bf
       -0.13496098 -0.3542323 -0.27611923 -0.53673977
000160 a3 41 6e bd a0 0d 1f bf 32 7e 4a be 99 51 0e bf
       -0.058168065 -0.62130165 -0.19774702 -0.5559326
000170 a4 5c ad bc de 0b e2 be 39 ad da 3c 9e 42 3b be
       -0.021162339 -0.4414968 0.026693927 -0.18287131
000180 ed 61 48 be 60 64 e6 bc 56 12 91 bf a6 69 d4 3f
       -0.19568606 -0.028124034 -1.1333721 1.6594741
000190 e9 15 ea be c2 37 c7 3f e9 0e 10 bf c4 ed c4 3f
       -0.4571984 1.5563891 -0.5627275 1.538506
0001a0 76 ca 6c bd 87 02 78 3f 52 34 d8 3e 56 77 2b 3f
       -0.05781027 0.96878856 0.42227417 0.6697897
0001b0 10 a2 1e 3f 51 8e e1 3e a0 fb 0c 3f ec 82 95 3e
       0.6196604 0.4405389 0.5507145 0.29201448
0001c0 e2 ed 04 3f bb 1e 9d bc 00 3f be 3e e4 a0 93 be
       0.5192548 -0.019179692 0.3715744 -0.28833687
0001d0 92 cf 04 3f e6 31 b1 be 3f ae 14 3f ef 05 9e be
       0.5187923 -0.34608382 0.5807838 -0.30863902
0001e0 53 3f fa 3e 16 67 91 be cc 45 a9 3e 37 b7 59 be
       0.48876438 -0.2839896 0.33061063 -0.21261297
0001f0 b3 e9 be 3e 9c ea 7d 3d 22 61 24 3e bf 71 20 3f
       0.37287673 0.06199132 0.16052678 0.6267356
000200 ed 14 08 be 8e 83 25 3e 58 1f 24 3f 75 7a e2 3f
       -0.13289233 0.16163465 0.64110327 1.7693621
000210 63 2c 11 3f ea 06 a8 3f da ed 47 3f 87 c9 a5 3f
       0.56708354 1.312711 0.7809731 1.2952126
000220 f4 c6 2c 3f 54 05 21 3f 73 84 7c 3f a1 ee 52 3e
       0.6749108 0.62898755 0.986396 0.20598842
000230 43 9f 87 3f 30 d2 26 3e 19 a6 47 3f 66 88 26 be
       1.0595478 0.16291118 0.7798782 -0.1626297
000240 d8 2a 0c 3f c6 5b 95 be cf 83 86 3e 4a 8d bc be
       0.54752874 -0.2917158 0.26272437 -0.36826545
000250 81 6d d6 3e 8d a3 a7 be 17 91 6e 3e cd 40 99 be
       0.4188042 -0.32741967 0.23297535 -0.29932252
000260 6e ff 5d 3d 51 3f d4 be 0a d6 d7 bd 2c c6 cc be
       0.054198675 -0.41454557 -0.105388716 -0.39994943
000270 a4 bf 99 be fe 0f 03 bf 3a ae 27 be 0a e4 d5 be
       -0.30029023 -0.5119628 -0.16375056 -0.41775542
000280 c4 3b 40 3e 96 c7 0c be d0 fc a8 3e 8f 5d 01 bf
       0.18772799 -0.13748011 0.3300538 -0.50533384
000290 57 2f 1f bf aa 1b 2d bf c3 a4 41 bf 20 38 4e be
       -0.6218161 -0.67620337 -0.7564203 -0.20138597
0002a0 56 38 91 bf a8 c0 5b 3e 3a ff 99 bf 76 a0 58 3f
       -1.1345317 0.21460211 -1.2031014 0.84619844
0002b0 49 31 69 bf 9a 19 59 3f 6a e5 59 bf 6d b0 53 3f
       -0.9109083 0.8480469 -0.85115683 0.8269108
0002c0 bd a7 49 bf 9e 82 75 3f c1 c9 98 be 90 69 45 3f
       -0.78771573 0.9590243 -0.29841426 0.771142
0002d0 77 88 13 bc c5 b3 05 3f f3 03 8b 3e c1 cf d1 bc
       -0.009004704 0.5222743 0.2715145 -0.02561176
0002e0 89 7b b5 3e 10 b0 32 be 2d 32 1c 3f 4c 89 05 bf
       0.35445812 -0.17449975 0.6101406 -0.52162623
0002f0 bd bf 9f 3e 5c 5e 69 bf 38 43 1c 3f 93 77 52 bf
       0.31200972 -0.91159606 0.6104007 -0.82213706
000300 30 67 62 3e 36 c3 18 be 28 23 a1 3e 56 de fd be
       0.22109675 -0.14918217 0.31472135 -0.4958369
000310 da e3 58 3f 96 06 84 bd 62 5b 87 3f 20 5c a2 be
       0.84722674 -0.06446569 1.0574763 -0.3171091
000320 93 7f 8d 3f a7 57 96 be 9f a0 83 3f 91 a2 b1 be
       1.1054558 -0.29363748 1.0283393 -0.3469434
000330 3e 46 31 3f 31 1d 6e 3e 80 42 ba 3e 1e e6 f0 3e
       0.69247806 0.23253323 0.3637886 0.47050565
000340 77 d7 06 3e 7e c2 5e 3f a5 eb 1a 3d 54 b8 11 3f
       0.13168131 0.8701552 0.037822384 0.5692189
000350 51 be 16 be 51 79 35 3f 4e 38 c6 be bd 10 6b 3f
       -0.14721037 0.7088824 -0.38714832 0.91822416
000360 67 dc 0c bf 0e 2b 06 3f e1 d5 4a bf ad f1 1e 3f
       -0.5502381 0.52409446 -0.79232603 0.6208752
000370 af e3 40 bf 2d 02 ee 3e 5b d9 90 bf 27 06 1a 3f
       -0.7534742 0.46486035 -1.1316332 0.6016564
000380 e0 12 27 be 0f 42 60 be 5b 03 d7 bf 5e 61 4e 3f
       -0.16315794 -0.219002 -1.6797899 0.8061732
000390 df 82 99 bf de 51 3f 3f a0 08 57 bf ed d1 88 3f
       -1.1993064 0.74734294 -0.83997536 1.0689064
0003a0 eb d0 39 bf af 17 73 3f ec 6c 97 be 5d 51 4f 3f
       -0.7258441 0.94958013 -0.29575288 0.80983526
0003b0 f4 6f c5 bd e7 2e fb 3e 07 c8 a2 3e db 17 74 3e
       -0.09640494 0.4905922 0.31793234 0.23837225
0003c0 b7 00 2d 3f dd 67 58 3e 61 2c 21 3f 9f fb da 3d
       0.67579216 0.2113337 0.6295834 0.10692524
0003d0 4b 93 34 3f c2 29 1d bd 36 18 ff 3e f1 62 82 3c
       0.7053725 -0.0383699 0.4982316 0.01591632
0003e0 b9 1c 49 3f cd c2 17 bd e6 08 4c 3f bb 9b f7 3d
       0.7855945 -0.03705101 0.7970108 0.1209025
0003f0 de 2e 10 3f 67 4d 1c 3e ed 9f 4f 3f 7d fa 89 3d
       0.56321514 0.15263902 0.811034 0.0673723

sequential/dense_1/MatMul f4 [10, 24]
000000 c9 9c 31 3f 38 cd f7 be 03 51 b4 be 0e 4f 4f 3e
       0.6937986 -0.48398757 -0.35218057 0.20245
000010 bc 98 91 be b4 5c 25 be c5 51 f9 bc e6 05 08 3e
       -0.2843684 -0.16148645 -0.030434499 0.132835
000020 2b 38 80 be 6d 18 b6 3f 46 d4 0e bf 95 96 5e be
       -0.25042853 1.4226204 -0.55792654 -0.2173713
000030 65 85 2c bf 60 10 80 bd 20 fb 78 be 99 12 d2 be
       -0.67391044 -0.06253123 -0.24314547 -0.41029814
000040 84 e8 6a be 55 71 cf bd 54 f0 07 bf aa 65 77 be
       -0.2294026 -0.10129038 -0.53101087 -0.24159876
000050 e3 ee 05 3f fb 20 3d bf 69 a6 10 3c ca 00 bf be
       0.5231764 -0.7387845 0.008828738 -0.3730529
000060 69 e7 13 3e 86 ab 15 3f 6d ad a7 bf 0a 97 ff bd
       0.14443745 0.5846485 -1.30998 -0.1247998
000070 5a 9d f4 be 11 7a 97 bf 4d 22 78 be 9d 95 29 3e
       -0.477763 -1.1834127 -0.24231835 0.16560979
000080 0d 2c 54 3f 2d 19 28 3f 85 83 4c 3f dc 49 2a bf
       0.82879716 0.65663415 0.7988818 -0.6651895
000090 0e 02 05 3f 7b 78 71 3f 6e ae 96 3e 33 24 c6 3e
       0.5195626 0.94324464 0.29429954 0.38699493
0000a0 a1 32 19 c0 a2 c6 6b bf dd 64 6a be 77 bc 3b bf
       -2.3937151 -0.92099965 -0.22890039 -0.7333445
0000b0 d3 1b 02 bf b3 56 72 3e 96 c2 1b 3f 05 68 d7 bc
       -0.50823706 0.23665886 0.6084379 -0.026294718
0000c0 8b df 82 3e ef e5 c2 bc 6c c9 14 3f c2 0e 05 3f
       0.25561175 -0.023791282 0.58119845 0.51975644
0000d0 08 1e 7a be b9 c5 7e 3f 25 3a 4d 3e 7d ab 8b 3d
       -0.24425519 0.9952045 0.20041712 0.06819818
0000e0 54 8d 15 3d de e6 71 3f 7a 36 c8 3e 0e 44 eb bd
       0.036511734 0.944929 0.39104062 -0.1148759
0000f0 6c 8e 63 3f e1 3e 9b bf ad 99 56 3c 15 8d 52 3e
       0.88889194 -1.2128564 0.013098163 0.20561631
000100 9e c9 f7 3e d0 7d fa 3e ee 64 81 be 38 73 0d bd
       0.4839601 0.48924112 -0.25272316 -0.03453371
000110 32 89 1e 3f b7 43 26 3e d6 ac a8 ba 31 bb 70 be
       0.61928093 0.16236769 -0.0012868892 -0.23508908
000120 33 34 38 3f 8e 43 09 3f 7a 78 fc 3e 62 20 8f 3f
       0.7195465 0.53618705 0.49310666 1.1181757
000130 74 3f 93 3f 56 15 12 3f fa 24 8d 3e 4a 01 89 3f
       1.1503739 0.57063806 0.27567273 1.0703518
000140 84 53 2a 3d 07 5f 97 3f 26 72 aa 3f a3 ff 21 3f
       0.041583553 1.1825875 1.3316085 0.63280696
000150 ea 9f a3 3d 6d 10 05 3f b2 22 69 3f 83 da e3 3d
       0.079894856 0.5197819 0.91068566 0.11125662
000160 4a c8 b4 be f2 d3 84 3e 85 c2 94 3f 62 bd 5c 3f
       -0.35309058 0.2594295 1.1621863 0.86226475
000170 d7 f9 de 3e 6e bc 88 3f d9 2a 85 3f 6d 20 c9 3f
       0.43549988 1.0682504 1.0403701 1.571302
000180 65 7a 16 be 27 9d 1d bd 89 e8 12 be cb a5 15 3f
       -0.14695127 -0.03847995 -0.14346518 0.58456105
000190 7e db 42 3e ca e2 7b be 8f 78 3f 3f 34 0b b5 3e
       0.19029042 -0.24598232 0.7479333 0.3536011
0001a0 49 50 1a 3f a0 1d 66 be 9c 94 d3 bc 78 fc 45 3f
       0.60278755 -0.22472239 -0.025827698 0.7733836
0001b0 36 99 76 3e c3 19 74 3d ac 38 b8 be 3f 5b c7 3e
       0.24081883 0.05959488 -0.35980737 0.38936803
0001c0 fa ee 23 3f 51 a6 42 3f 96 92 2b 3f 4f 1d 51 3f
       0.64036524 0.7603503 0.6702055 0.81685346
0001d0 c8 a7 68 3f a1 af 45 3e 33 70 38 3f 26 a2 02 3f
       0.90881014 0.19305278 0.720462 0.5102867
0001e0 65 3a 05 c0 5d 7d c1 3e fc aa 45 bf 0f 65 d5 bf
       -2.0816891 0.37790957 -0.77214026 -1.6671466
0001f0 20 0e 34 bf 69 d5 af bf ce 67 a7 be 84 2f c9 bf
       -0.70334053 -1.3737003 -0.32696384 -1.5717626
000200 26 10 80 3c 44 a7 02 3f f3 10 1c 3f db 36 3e 3e
       0.0156327 0.5103648 0.6096336 0.18575613
000210 3d 3b 9f be 36 18 1c 3f 30 b0 7b 3e 60 6a 1a 3e
       -0.31099883 0.6097444 0.24578929 0.15079641
000220 42 5f 4d 3e 1f b3 f1 bd e3 d5 d4 be e3 57 33 be
       0.20055869 -0.11801743 -0.41569433 -0.17513995
000230 54 ee d5 bf 39 9b 9a 3e 67 b8 3f bf d1 45 94 bf
       -1.6713357 0.3019655 -0.7489075 -1.1583806
000240 06 31 59 3e a6 9f 55 3f 41 20 99 be 7b e3 bd 3f
       0.21210107 0.8344673 -0.2990742 1.4835047
000250 4f 68 f1 3f 5b ec 82 3e 1e a7 0c be b0 a5 d5 3f
       1.8859957 0.2557095 -0.13735625 1.6691189
000260 e2 91 20 3e 67 66 80 3f 4d 36 a3 3f 09 de 87 3f
       0.1568065 1.0031251 1.2750946 1.0614635
000270 ac 0a d2 bd c2 94 e7 3e 7f 4d 02 3f e5 27 2a 3f
       -0.10255942 0.4523068 0.508995 0.66467124
000280 75 46 29 bd 28 35 89 3f 1d 42 d6 3f 03 3b aa 3f
       -0.04132696 1.0719347 1.6738926 1.3299259
000290 95 2e 68 3d 06 62 c1 3f b8 1b 88 3f bb ee 09 40
       0.05668505 1.5108039 1.0633459 2.155196
0002a0 2e 39 50 bf e4 69 0e be 53 21 ae bf 23 54 3f bf
       -0.8133725 -0.13907582 -1.360392 -0.7473776
0002b0 38 b2 34 bf 5b 45 95 bf 23 b6 86 bf f6 45 1b bf
       -0.7058444 -1.1661791 -1.0524334 -0.60653627
0002c0 e0 0d de 3e fc da 3a bf b0 4d ce bf db 2c 83 3e
       0.4336996 -0.72990394 -1.6117458 0.2562016
0002d0 91 37 02 c0 82 e2 66 bd 1b b3 07 3f 11 1b 46 be
       -2.0346415 -0.05636836 0.5300767 -0.19346263
0002e0 a4 e7 48 3e 94 31 3f 3e d5 61 8a bf 0d 79 83 bf
       0.19619614 0.18671256 -1.0811106 -1.0271317
0002f0 d2 8e 4b bf d6 6a d9 bf 1f 7d 76 be 32 a0 b5 bf
       -0.795148 -1.6985729 -0.24071167 -1.4189513
000300 a6 c7 8b 3f 4c 7f bf 3f f5 70 9f 3f 54 a8 2f 3f
       1.0920303 1.4960723 1.2456347 0.68616223
000310 bd 49 5e 3f e9 85 81 3f ee a5 89 3f ad 10 0a 3f
       0.86831266 1.0118991 1.0753763 0.53931695
000320 76 09 d5 3f 0c bc b6 3f 32 d1 4d 3f a5 8a 66 3f
       1.6643512 1.4276137 0.8039733 0.90055305
000330 06 49 d8 3f 81 a4 4e be d7 24 0d 3f af 00 be 3f
       1.6897285 -0.20179941 0.5513434 1.4843959
000340 82 24 13 3f 1c 70 9c 3f d5 bf 18 3f 33 cb 2b 3f
       0.5747758 1.2221713 0.5966771 0.6710693
000350 f5 30 68 3f 8a c3 ee 3e bb 5d a4 3f 20 28 ef 3e
       0.906997 0.4663356 1.2841104 0.467103
000360 fc 00 af 3f 3b f7 cc 3e 91 cf ac be b1 86 24 bc
       1.3672175 0.40032372 -0.3375211 -0.010041879
000370 56 5f c1 3a e1 b2 60 be 43 2b 90 3f 2f 75 2f 3e
       0.0014753144 -0.21943237 1.1263202 0.17134546
000380 55 d1 38 3f bd a2 96 3c 6e bb ba 3e 0b 93 0b 3d
       0.72194415 0.018388147 0.36471123 0.034075778
000390 40 b5 1d 3f 76 74 61 3e 75 96 3e 3f 66 8c 45 3f
       0.6160469 0.22017083 0.7444833 0.77167356
0003a0 95 a3 c9 be 97 1b b7 bc 5a 6a 8d be da 87 14 be
       -0.39382616 -0.022352023 -0.27620202 -0.14504948
0003b0 de 3b 0c bf 3d 65 17 3d 17 17 8e be 99 0a 97 be
       -0.5477885 0.036961783 -0.2775199 -0.29500273

sequential/dense_2/MatMul f4 [4, 10]
000000 04 74 88 bf 80 52 c0 bf 9e be 31 c0 c1 51 55 c0
       -1.0660405 -1.5025177 -2.7772593 -3.3331149
000010 23 cd 4a c0 b9 2e 93 3f de 61 5b c0 3a 56 e7 3f
       -3.1687706 1.1498634 -3.4278483 1.8073189
000020 23 5b 93 c0 a4 88 53 c0 8c 8c cd 3f b1 48 d5 3f
       -4.604875 -3.305215 1.6058517 1.6662809
000030 67 8b b8 3f 45 52 34 bf 43 aa 92 3d 84 35 c3 be
       1.4417542 -0.70438033 0.07161381 -0.38126767
000040 e1 a5 40 bf 15 8f e0 bf e8 c8 58 3f 81 71 b8 3f
       -0.7525311 -1.7543665 0.8468156 1.4409639
000050 7b cf eb be 0a 1e 9d bf c2 48 b3 3d 50 93 2b 3f
       -0.46056733 -1.2274792 0.08754112 0.67021656
000060 bf 7e 72 be 56 23 68 bd ba c0 96 3f 4e ce fe bf
       -0.23681162 -0.056674324 1.1777565 -1.9906709
000070 33 00 13 3f 88 3f 8a bf 28 2e 30 bf 36 04 89 be
       0.5742218 -1.0800638 -0.6882043 -0.26761025
000080 13 84 1c bf 54 0b 23 3e 03 2a 92 3f 9f fe cc bf
       -0.6113903 0.1592229 1.1419071 -1.6015204
000090 12 78 66 3f a0 11 d2 bd 3b 92 7e 3f 75 80 e1 3e
       0.9002696 -0.10257268 0.9944188 0.44043317
