hand-gesture-recognition-mediapipe-main/model/keypoint_classifier/keypoint_classifier.tflite (tflite, 6588 bytes, 6 tensors)

sequential/dense/BiasAdd/ReadVariableOp f4 [20]
00000000: 2e15 a1be 0f07 dbbd 1a95 4abf b5e2 10be
00000010: c3da f1be 0426 acbe 89f2 20bf aaee e73d
00000020: c061 b7be 114e 0cbf 14e9 5ebe c4df 2dbf
00000030: 65c7 42bf 77c1 b5be a091 23bf 1bae d7bd
00000040: 99b0 56bf a7e6 52be e44f cdbe 3ec4 fabc
-0.3146147 -0.10694706 -0.7913376 -0.14148982 -0.47237214 -0.33622754 -0.6287008 0.113248184
-0.35816765 -0.5480662 -0.217686 -0.67919564 -0.760855 -0.35499164 -0.6389408 -0.10531255
-0.83863217 -0.205958 -0.40100014 -0.030611154

sequential/dense_2/BiasAdd/ReadVariableOp f4 [5]
00000000: da41 1fbf a896 40be 5102 ca3e ad7e a0be
00000010: d1d5 2e3f
-0.62209857 -0.18807471 0.39454892 -0.31346646 0.6829501

sequential/dense_1/BiasAdd/ReadVariableOp f4 [10]
00000000: 649b 2dbf 20d6 253f 494e 9ebe 6dbf 6b3e
00000010: dde0 2ebe b33c e8bd 9ddb 153f 26b7 3f3f
00000020: 92e0 bb3e e9a7 16bf
-0.6781523 0.64779854 -0.30919102 0.23022242 -0.17077966 -0.113397025 0.5853823 0.7488884
0.3669477 -0.5884996

sequential/dense/MatMul f4 [20, 42]
00000000: 7072 c53c d0c2 6fbd 4a77 1fbd 118e d53e
00000010: 809f ffbd 7a7e babe 7e5c 20be 99c8 dabe
00000020: 095b 39be ff63 a2be 05bf 673e 01b7 1fbe
00000030: 3555 2d3d 5983 b1be 3b95 0b3d c531 23bf
00000040: fe84 d6bc d537 eabe 8091 033e 4b45 9abd
00000050: d085 0d3d f02f 343b 9923 96bd 0c14 b93d
00000060: 0f19 43bd 9671 8f3d 1683 b73e 1e9e d03c
00000070: e95b a13d 7228 23bc b6d6 483d 3ff0 e03d
00000080: 433d a13c 5183 af3d a4d0 e23e ed0a ab3d
00000090: 97f5 933e 2e82 653d 1b6b ae3d ef1a 183e
000000a0: 726f 043e 2807 f13d 5e2c 803e e8b8 74bd
000000b0: 4996 b2bd b788 80be 2f7e 8bbd 7a37 cebe
000000c0: f066 bfbe ce58 bbbe 3c21 3ebf 7efb 73be
000000d0: 8150 b1bd d1d9 e83d 7ccc 823d 69ac 4e3d
000000e0: 7bd2 383e c09c 713d 4530 993e 61a2 993d
000000f0: a203 01be 1927 063e 33cf d23c 640e 16bc
00000100: 2640 b63e 0499 4e3d 0f28 383e 0e80 0a3d
00000110: 78b8 9fbe 6e84 133e f508 3ebb 58dd 21be
00000120: 0f0b f13e a0dc 553e e1fb 203f 55d1 be3e
00000130: add6 92be 4cdd 5d3e f05c f13d 0c61 7d3d
00000140: 9083 8d3e feaf 7d3d cf69 0a3f f771 eb3e
00000150: 66a1 0f3e c229 093e 55b4 673e bcfe b33d
00000160: b212 af3d fc18 f9be d4d6 843c de7a 05bf
00000170: 1a43 e6bd 50d6 6fbe 9c68 c53e 5bce 2fbe
00000180: a5db 813d 34c6 8c38 8f5d 92bd c7f4 103e
00000190: 5452 08bc 386d 1f3e 859b 733e c91c 8fbd
000001a0: f89a eebd ad2b e2bd 6323 dabd b1e5 ce3d
000001b0: 5b85 97bd a2c7 c43d b065 083e 027b a0be
000001c0: 8ee9 febd 7ab8 34be f19e 1fbb 8bf2 cb3d
000001d0: d3ba b5bb 2f91 eb3d 8bfe a63d f54e c2be
000001e0: b601 2a3b 34f1 8ebe f55c 83bc ff94 453d
000001f0: a6cc f23d cac5 a03d 5e89 fcbd de40 3d3e
00000200: 162d cbbe 3e6f a6bb efc5 c2be f774 7ebb
00000210: 827b 49be 9adb 1ebf 664b 0b3e 99f1 e0be
00000220: 89fd 1ebf 023f 0a3e 32e2 16bf 0aa2 7a3e
00000230: d9e7 8fbe 0288 493e aafe d7be cff0 193e
00000240: 063f 09bf 568f 5f3e 93c2 46be 229d 143e
00000250: e025 09bd cbb8 ab3c 74f9 153e 28e7 3dbd
00000260: f290 babe 8187 e83d 3c83 25be 430b 833e
00000270: 280e 7e3e e2ee 703e 30b6 903e 02c6 143e
00000280: d440 dd3b a5fc 3b3e 200a f6bd e4a3 b03e
00000290: 0112 353e 5d30 bf3e 4966 b63e 8b2f 333e
000002a0: 2910 0bbe 48f0 2b3d 1a1c 893e b04a d23e
000002b0: efae ea3d 2c46 743e 558e 503e f606 75be
000002c0: e86c 22be 9965 6abe db96 b43e bfc3 cdbd
000002d0: c7b0 923e d076 22be 6043 af3c a5b7 49be
000002e0: 79fe 55bd 4208 ecbd 5285 5e3e 2fb8 01be
000002f0: 9ee0 63bd 1072 e23c 8b69 36be bfb5 e53e
00000300: 5a97 86be 5357 e23e fc13 b53e 0688 81be
00000310: 5455 1a3d b3b0 e0be 1d33 8fbd feb7 b4bd
00000320: 36af 2e3e 9f63 a2bb 14ad 973d fbd8 b8be
00000330: 5eff f1bd 0afe f2be 2495 873d a0ef c7be
00000340: 5683 c53d da2c a0be a6a4 fdbd 9c3e 713e
00000350: 60ae 91be e746 dfbd 3a9a 8bbd e803 b73e
00000360: fd17 5bbd 8075 b93e e212 86be c315 be3e
00000370: d3f6 bc3c 61bb 903d 908d 21bc 3fc0 433d
00000380: 3318 0dbd 938d c3bc 2b79 cd3c 8529 04bd
00000390: 23ce b2bd 48a7 803d 3e04 573d 524d 853b
000003a0: 17cc 733e fe59 4ebf 60c4 1c3f b4fb b1be
000003b0: 96e6 43be 2328 0a3e 7c5d cebd 3aac f93d
000003c0: 1c97 f63d d61a 1abe 89b7 3f3c 228c 1dbf
000003d0: 25b3 47be 495a 623e b8be 0abe d02c 553e
000003e0: 6f04 e53d 6144 523d 601e 75bc 7105 60be
000003f0: f6e4 64be 7007 c3bd 4c2c b13d 9b24 6b3e
0.02410242 -0.058535397 -0.038932122 0.4170995 -0.12481594 -0.3642462 -0.15660283 -0.4273117
-0.18101133 -0.31716916 0.22631462 -0.15597154 0.042317588 -0.34670523 0.034077864 -0.6374782
-0.026186462 -0.4574572 0.12848473 -0.07532748 0.03455144 0.0027494393 -0.073310085 0.09037027
-0.04763132 0.07004087 0.35842198 0.025466021 0.078788586 -0.009958373 0.04903289 0.10983323
0.019682532 0.085699685 0.44299805 0.08351693 0.28898308 0.056032352 0.085165225 0.14854024
0.12933138 0.11768943 0.2503385 -0.059746653 -0.08720071 -0.25104305 -0.06811177 -0.402767
-0.37383223 -0.3659119 -0.7426946 -0.23826405 -0.08657933 0.1136967 0.063866585 0.050457392
0.18049042 0.05898738 0.2991964 0.075016744 -0.12599042 0.13100852 0.025733566 -0.009158704
0.35595816 0.050438896 0.17984031 0.03381353 -0.31195426 0.14405987 -0.0028997038 -0.15807092
0.4707875 0.20884943 0.62884337 0.37269083 -0.2867941 0.2166645 0.117853045 0.06186013
0.27639437 0.061935417 0.540677 0.45985386 0.14026412 0.13394836 0.22627385 0.08788821
0.08548488 -0.48651874 0.01621572 -0.52140605 -0.11243267 -0.23421597 0.38556373 -0.17168562
0.06340722 6.7126384e-05 -0.07146751 0.14155875 -0.00832041 0.15569007 0.23789795 -0.06987912
-0.11650652 -0.11043487 -0.10651281 0.10102404 -0.073984824 0.096083894 0.1332004 -0.31343848
-0.12446891 -0.17648497 -0.002435621 0.09958371 -0.005545953 0.11502301 0.08154019 -0.37950864
0.0025940961 -0.27918398 -0.016035536 0.048237797 0.1185544 0.07850225 -0.12330888 0.18481776
-0.39682835 -0.005079179 -0.38041636 -0.003882704 -0.1967602 -0.62053835 0.13602981 -0.43934324
-0.62105614 0.13500598 -0.58938897 0.24475875 -0.28106573 0.19680789 -0.4218648 0.15033267
-0.5361179 0.21832022 -0.19410162 0.14513066 -0.033483386 0.02096214 0.1464594 -0.046363026
-0.3643871 0.1135397 -0.16163343 0.2559453 0.24810088 0.23528627 0.28263998 0.14528659
0.006752113 0.18358095 -0.1201365 0.3450004 0.17682649 0.37341586 0.35624912 0.17498605
-0.13580383 0.041977197 0.26779252 0.41072607 0.11459147 0.23854893 0.20366795 -0.23928437
-0.15861857 -0.22890319 0.35271344 -0.10047101 0.28650495 -0.15865636 0.021394432 -0.19698961
-0.052244637 -0.115250126 0.21730545 -0.12667917 -0.055634134 0.02764228 -0.17813699 0.44865224
-0.26287347 0.44207248 0.3536681 -0.2529909 0.03767903 -0.4388481 -0.06992171 -0.08824156
0.17059025 -0.0049557234 0.07406059 -0.36103043 -0.118162856 -0.4745944 0.06620243 -0.39050007
0.09644191 -0.3128422 -0.1238492 0.2355904 -0.2845335 -0.109021954 -0.06816526 0.35745168
-0.053489674 0.36222458 -0.2618628 0.37125978 0.023066914 0.0706699 -0.009860411 0.047790762
-0.034446906 -0.023871219 0.025082191 -0.03226616 -0.08730724 0.06281906 0.05249428 0.004068055
0.23808323 -0.8060607 0.61237144 -0.34762347 -0.1913093 0.13491873 -0.100764245 0.12191053
0.120405406 -0.150493 0.011701473 -0.6154195 -0.19501932 0.22104754 -0.13549316 0.20817876
0.11182486 0.051334742 -0.014960855 -0.21877076 -0.22352967 -0.09522903 0.08651027 0.22963183

sequential/dense_1/MatMul f4 [10, 20]
00000000: 468d 2d3e 845c 1a3f e904 db3e 27e4 033f
00000010: 56cd 723e 78f3 b43e 55d4 943e 131e 8b3e
00000020: d5eb 9e3e dbaf 7e3e c901 053e 7880 c2bd
00000030: feb8 95bd 760d b33f a162 053f 8bbd 8b3e
00000040: f694 b83e 6f7c f83d 6639 6bbc 7b00 a13e
00000050: c74b a23d 412b 90bf c9bc 22be dadc c4be
00000060: 9c94 b53e d916 acbe b13c 2ebf 9364 da3d
00000070: 4bc0 c2be a247 7f3c 05b5 773d fc94 45bf
00000080: 1994 62be 041e c1be 4a27 893e 0cca 923e
00000090: 8a1f c23e 4be7 3fbf 95fd 5bbf 681d a23e
000000a0: cbe4 c73d 61a7 0f3f fbbe 183e ddc4 ebbe
000000b0: 224a 913e 783e 053f 1052 5a3f 40df a9be
000000c0: 0418 543f 39d2 503e 93eb b53d 2d6b 443e
000000d0: c7a1 31be b1d4 84bd fc5b 613f 4eb7 463d
000000e0: 59b5 853f 9102 7d3f b6c7 683f be6e cc3d
000000f0: 3b42 ec3d 280b 6a3f 9a00 16bf fe2a 643f
00000100: c238 0cbe 7491 843f ea41 633f f48d 983f
00000110: 8937 1c3e 74e9 8ebe a019 ca3d cb94 313f
00000120: e83a 803f 42aa 243f 0698 e0bc 2848 573e
00000130: 2d63 b03e 899c eb3e d49f b53f 9251 093e
00000140: 8754 90bd 0e11 45bc 44ff 833f 8b22 b8be
00000150: 9d19 fd3e 4de8 11be 88d1 583d 8188 97be
00000160: d12a 83bd 0196 23bf 59b4 6cbd 4a62 89be
00000170: 2190 f63e 3290 e93e 76d6 a9bc 6929 17bf
00000180: d997 23bc d7f1 06bf 0519 b4be 4d5a f0be
00000190: b6af dd3d 963c c93e 9231 1fbf 9139 28bf
000001a0: 788d e93d 7982 2f3f 55c4 4c3e 01a0 febe
000001b0: b202 043f be26 49be 3029 a13e ae78 1bbe
000001c0: 122a 803e 20da 12bf f765 a03e 892c 0f3f
000001d0: cff1 a53c b128 1abf 5e02 603f df93 293e
000001e0: 8319 0e3f b474 69be 5b6c 5a3f 11db 8e3e
000001f0: 7026 e33e e5ff 7b3e 1d31 213e 4d0e 16bd
00000200: 11b4 0fbe bb34 9d3f 8d8a 4b3f a816 b9be
00000210: 8114 d0bc 7030 14be 7bf3 b23e 62e7 613f
00000220: b205 3b3e a794 58bd e540 20bf 6a25 e13c
00000230: 3523 063f 28f6 cebd 2b8b 2abe c0a6 b9be
00000240: e303 db3d 02e2 213e 52ef 90be 4110 8fbe
00000250: 64e5 abbf 03fc 483e 6b1b d73e a6dc 7cbe
00000260: 2508 5d3c 1465 32bf fb11 83bf 2999 1c3f
00000270: f1be b3bf fb3a 47bf 6af9 2a3e 7e5f 1e3f
00000280: f1a3 89bf 7aba d83d 1064 a13d 80df 21bf
00000290: 3d26 da3d 68df ad3e e72d 553e e4cf 16bf
000002a0: 5b3c 203e c2cf 853e c727 5bbf c64a 4d3e
000002b0: 4824 f5bd 8578 37bf faed af3e 34f1 8fbf
000002c0: 3c08 683e d931 0abf f549 eb3d a2b4 c1bf
000002d0: c0b7 b03e b751 1ebe e191 783f 8fed 29be
000002e0: 73cf fc3e 0617 95bc 7187 533f 2f2a 203f
000002f0: 2795 c13f 23e4 293f c468 e33d 35ef f03e
00000300: 8821 1e3f 5030 353f 7371 943f 9328 c8bc
00000310: c2bc 933f 6c4b db3c d7d2 923d f793 10be
0.16948423 0.6029742 0.42777184 0.5152001 0.23711142 0.35342002 0.29068246 0.27171382
0.310393 0.24871771 0.12988962 -0.0949716 -0.07310675 1.3988483 0.5210362 0.27293047
0.36051148 0.12133109 -0.014356947 0.3144568 0.0792461 -1.12632 -0.15892328 -0.38449746
0.35464942 -0.3361118 -0.6806136 0.10663714 -0.38037333 0.015581043 0.060475368 -0.7718046
-0.22126807 -0.37718213 0.26787788 0.28669775 0.37914687 -0.749623 -0.8593381 0.3166306
0.09760436 0.56114775 0.14916603 -0.46048632 0.2837687 0.52048445 0.8528147 -0.3317814
0.82849145 0.20392694 0.08882823 0.1918151 -0.1734687 -0.0648588 0.8803098 0.048514657
1.0445968 0.9883204 0.90929735 0.0998206 0.1153607 0.91423273 -0.5859467 0.891281
-0.13693526 1.0356889 0.8877245 1.1918321 0.1525556 -0.27912486 0.09868169 0.69367665
1.0017977 0.6432229 -0.02741624 0.21023619 0.34450665 0.46017864 1.4189401 0.13410023
-0.07047372 -0.012027992 1.0312276 -0.35963854 0.49433604 -0.14248772 0.0529342 -0.29596332
-0.06404651 -0.6390076 -0.05778918 -0.268328 0.48156837 0.45617825 -0.020732146 -0.5904756
-0.009984934 -0.5271277 -0.35175338 -0.46943894 0.1082453 0.39304036 -0.62185013 -0.6571284
0.11403936 0.6855846 0.1999677 -0.49731448 0.5156661 -0.19643685 0.31476736 -0.15182754
0.25032097 -0.5736408 0.31327793 0.5592733 0.020256905 -0.6021834 0.8750361 0.16560315
0.5550768 -0.22798425 0.8532159 0.2790151 0.44365263 0.24609335 0.15741391 -0.036634732
-0.14033534 1.2281717 0.79508287 -0.36150098 -0.025400402 -0.14471602 0.34951386 0.8824369
0.18263891 -0.05287614 -0.6259902 0.02748366 0.5239747 -0.10105544 -0.16654651 -0.36260033
0.10694101 0.15808871 -0.28307587 -0.27942088 -1.342938 0.19627385 0.42013106 -0.24693546
0.013490711 -0.6968548 -1.0239862 0.61171204 -1.4042646 -0.7782437 0.16696706 0.6186446
-1.0753156 0.105824426 0.078804135 -0.6323166 0.106518246 0.33959508 0.20818292 -0.58910966
0.15648024 0.2613507 -0.8560757 0.20048055 -0.11969811 -0.71668273 0.3436125 -1.1245484
0.22659391 -0.5398231 0.114887156 -1.513325 0.3451519 -0.15460859 0.97097594 -0.16594528
0.4937702 -0.018199455 0.8262854 0.6256437 1.5123643 0.66363734 0.11103967 0.470575
0.61769915 0.70776844 1.1597122 -0.02443341 1.1541979 0.026769362 0.07169121 -0.14118944

sequential/dense_2/MatMul f4 [5, 10]
00000000: 7683 4b3f 91a9 173e d68d 473f 69e7 d93e
00000010: deca 2fbf 3dd8 603f e08a b1be 1992 0fbf
00000020: c8e8 19bf da8a fc3e c05c e73e aca4 29bf
00000030: 4d1c a13e 5e90 773e 0321 423f 88c2 8abf
00000040: 9019 303f a05d 56bf dd9d 93be bd4e 613f
00000050: f706 a7bf ffc9 a63f 3ca1 c8bf 580d fabf
00000060: fd4d 54bf c66e 17bf ee25 f33e 2342 8a3f
00000070: 233b e4bd 48e7 5cbf 0aec 5cbd 4ed5 ed3d
00000080: 737e 5a3f 0677 b93e 02b4 933e 83fb 1e3f
00000090: aae0 21bf b7d8 d7be da78 953f d429 113f
000000a0: 0e9a 35bf 594a 7bbf 10c2 b1be 99c7 563f
000000b0: 131b b9be cded fc3e d1c8 26be 0ac1 d93e
000000c0: bd86 68be 09a7 1ebf
0.7949747 0.14810778 0.779508 0.42559364 -0.68668926 0.87829953 -0.34676266 -0.560823
-0.6012082 0.49324685 0.4518795 -0.66266894 0.31466904 0.24176165 0.7583162 -1.0840616
0.68789005 -0.8373661 -0.28831378 0.8801077 -1.3049 1.3030394 -1.5674205 -1.9535322
-0.829315 -0.591534 0.47489876 1.0801433 -0.11144092 -0.8629041 -0.053936042 0.1161295
0.85349196 0.3622362 0.28848273 0.62102526 -0.63233435 -0.42157528 1.1677506 0.5670445
-0.70938194 -0.9816032 -0.3471837 0.8389831 -0.36153468 0.49400178 -0.16287543 0.4253009
-0.22707649 -0.61973625
